…
              type: "Data"
                top: "data"
                  top: "label"
                    include {
                          phase: TRAIN
                                     }
            transform_param {
                  mean_file: "datasets/mean_training_image.binaryproto"
                                 }
              data_param {
                    source: "datasets/training_set_lmdb"
                                  batch_size: 400
                                      backend: LMDB
                                        }
}
layer {
    name: "conv1"
              type: "Convolution"
                bottom: "data"
                  top: "conv1"
                    param {
                          lr_mult: 0
                                       }
            param {
                  lr_mult: 0
                               }
              convolution_param {
                    num_output: 96
                                      kernel_size: 7
                                          stride: 2
                                            }
}
layer {
    name: "relu1"
              type: "ReLU"
                bottom: "conv1"
                  top: "conv1"
}
layer {
    name: "norm1"
              type: "LRN"
                bottom: "conv1"
                  top: "norm1"
                    lrn_param {
                          local_size: 5
                                            alpha: 0.0005
                                                beta: 0.75
                                                  }
}
layer {
    name: "pool1"
              type: "Pooling"
                bottom: "norm1"
                  top: "pool1"
                    pooling_param {
                          pool: MAX
                                      kernel_size: 3
                                          stride: 3
                                            }
}
layer {
    name: "conv2"
              type: "Convolution"
                bottom: "pool1"
                  top: "conv2"
                    param {
                          lr_mult: 0
                                       }
            param {
                  lr_mult: 0
                               }
              convolution_param {
                    num_output: 256
                                      pad: 2
                                          kernel_size: 5
                                            }
}
layer {
    name: "relu2"
              type: "ReLU"
                bottom: "conv2"
                  top: "conv2"
}
layer {
    name: "pool2"
              type: "Pooling"
                bottom: "conv2"
                  top: "pool2"
                    pooling_param {
                          pool: MAX
                                      kernel_size: 2
                                          stride: 2
                                            }
}
layer {
    name: "conv3"
              type: "Convolution"
                bottom: "pool2"
                  top: "conv3"
                    param {
                          lr_mult: 0
                                       }
            param {
                  lr_mult: 0
                               }
              convolution_param {
                    num_output: 512
                                      pad: 1
                                          kernel_size: 3
                                            }
}
layer {
    name: "relu3"
              type: "ReLU"
                bottom: "conv3"
                  top: "conv3"
}
layer {
    name: "conv4"
              type: "Convolution"
                bottom: "conv3"
                  top: "conv4"
                    param {
                          lr_mult: 0
                                       }
            param {
                  lr_mult: 0
                               }
              convolution_param {
                    num_output: 512
                                      pad: 1
                                          kernel_size: 3
                                            }
}
layer {
    name: "relu4"
              type: "ReLU"
                bottom: "conv4"
                  top: "conv4"
}
layer {
    name: "conv5"
              type: "Convolution"
                bottom: "conv4"
                  top: "conv5"
                    param {
                          lr_mult: 0
                                       }
            param {
                  lr_mult: 0
                               }
              convolution_param {
                    num_output: 512
                                      pad: 1
                                          kernel_size: 3
                                            }
}
layer {
    name: "relu5"
              type: "ReLU"
                bottom: "conv5"
                  top: "conv5"
}
layer {
    name: "pool5"
              type: "Pooling"
                bottom: "conv5"
                  top: "pool5"
                    pooling_param {
                          pool: MAX
                                      kernel_size: 3
                                          stride: 3
                                            }
}
layer {
    name: "fc6"
              type: "InnerProduct"
                bottom: "pool5"
                  top: "fc6"
                    param {
                          lr_mult: 1
                                       }
            param {
                  lr_mult: 1
                               }
              inner_product_param {
                    num_output: 4048
                                    }
}
layer {
    name: "relu6"
              type: "ReLU"
                bottom: "fc6"
                  top: "fc6"
}
layer {
    name: "drop6"
              type: "Dropout"
                bottom: "fc6"
                  top: "fc6"
                    dropout_param {
                          dropout_ratio: 0.5
                                             }
}
layer {
    name: "fc7"
              type: "InnerProduct"
                bottom: "fc6"
                  top: "fc7"
                    param {
                          lr_mult: 1
                                       }
            param {
                  lr_mult: 1
                               }
              inner_product_param {
                    num_output: 4048
                                    }
}
layer {
    name: "relu7"
              type: "ReLU"
                bottom: "fc7"
                  top: "fc7"
}
layer {
    name: "drop7"
              type: "Dropout"
                bottom: "fc7"
                  top: "fc7"
                    dropout_param {
                          dropout_ratio: 0.5
                                             }
}
layer {
    name: "fc8_cat"
              type: "InnerProduct"
                bottom: "fc7"
                  top: "fc8"
                    param {
                          lr_mult: 1
                                       }
            param {
                  lr_mult: 1
                               }
              inner_product_param {
                    num_output: 7
                                    }
}
layer {
    name: "prob"
              type: "SoftmaxWithLoss"
                bottom: "fc8"
                  bottom: "label"
}
I0309 03:53:08.245957 2039427072 layer_factory.hpp:77] Creating layer training_train
I0309 03:53:08.251075 2039427072 net.cpp:106] Creating Layer training_train
I0309 03:53:08.251111 2039427072 net.cpp:411] training_train -> data
I0309 03:53:08.251133 2039427072 net.cpp:411] training_train -> label
I0309 03:53:08.251154 2039427072 data_transformer.cpp:25] Loading mean file from: datasets/mean_training_image.binaryproto
I0309 03:53:08.256718 3211264 db_lmdb.cpp:38] Opened lmdb datasets/training_set_lmdb
I0309 03:53:08.256925 2039427072 data_layer.cpp:41] output data size: 400,3,224,224
I0309 03:53:08.591356 2039427072 net.cpp:150] Setting up training_train
I0309 03:53:08.591398 2039427072 net.cpp:157] Top shape: 400 3 224 224 (60211200)
  I0309 03:53:08.591416 2039427072 net.cpp:157] Top shape: 400 (400)
  I0309 03:53:08.591424 2039427072 net.cpp:165] Memory required for data: 240846400
  I0309 03:53:08.591434 2039427072 layer_factory.hpp:77] Creating layer conv1
  I0309 03:53:08.591462 2039427072 net.cpp:106] Creating Layer conv1
  I0309 03:53:08.591475 2039427072 net.cpp:454] conv1 <- data
  I0309 03:53:08.591487 2039427072 net.cpp:411] conv1 -> conv1
  I0309 03:53:08.785176 2039427072 net.cpp:150] Setting up conv1
  I0309 03:53:08.785208 2039427072 net.cpp:157] Top shape: 400 96 109 109 (456230400)
  I0309 03:53:08.785219 2039427072 net.cpp:165] Memory required for data: 2065768000
  I0309 03:53:08.785235 2039427072 layer_factory.hpp:77] Creating layer relu1
  I0309 03:53:08.785254 2039427072 net.cpp:106] Creating Layer relu1
  I0309 03:53:08.785262 2039427072 net.cpp:454] relu1 <- conv1
  I0309 03:53:08.785271 2039427072 net.cpp:397] relu1 -> conv1 (in-place)
  I0309 03:53:08.785472 2039427072 net.cpp:150] Setting up relu1
  I0309 03:53:08.785485 2039427072 net.cpp:157] Top shape: 400 96 109 109 (456230400)
  I0309 03:53:08.785495 2039427072 net.cpp:165] Memory required for data: 3890689600
  I0309 03:53:08.785501 2039427072 layer_factory.hpp:77] Creating layer norm1
  I0309 03:53:08.785516 2039427072 net.cpp:106] Creating Layer norm1
  I0309 03:53:08.785522 2039427072 net.cpp:454] norm1 <- conv1
  I0309 03:53:08.785533 2039427072 net.cpp:411] norm1 -> norm1
  I0309 03:53:08.785784 2039427072 net.cpp:150] Setting up norm1
  I0309 03:53:08.785802 2039427072 net.cpp:157] Top shape: 400 96 109 109 (456230400)
  I0309 03:53:08.785811 2039427072 net.cpp:165] Memory required for data: 5715611200
  I0309 03:53:08.785818 2039427072 layer_factory.hpp:77] Creating layer pool1
  I0309 03:53:08.785830 2039427072 net.cpp:106] Creating Layer pool1
  I0309 03:53:08.785836 2039427072 net.cpp:454] pool1 <- norm1
  I0309 03:53:08.785847 2039427072 net.cpp:411] pool1 -> pool1
  I0309 03:53:08.785866 2039427072 net.cpp:150] Setting up pool1
  I0309 03:53:08.785872 2039427072 net.cpp:157] Top shape: 400 96 37 37 (52569600)
  I0309 03:53:08.785881 2039427072 net.cpp:165] Memory required for data: 5925889600
  I0309 03:53:08.785887 2039427072 layer_factory.hpp:77] Creating layer conv2
  I0309 03:53:08.785898 2039427072 net.cpp:106] Creating Layer conv2
  I0309 03:53:08.785904 2039427072 net.cpp:454] conv2 <- pool1
  I0309 03:53:08.785913 2039427072 net.cpp:411] conv2 -> conv2
  I0309 03:53:08.787889 2039427072 net.cpp:150] Setting up conv2
  I0309 03:53:08.787921 2039427072 net.cpp:157] Top shape: 400 256 37 37 (140185600)
  I0309 03:53:08.787930 2039427072 net.cpp:165] Memory required for data: 6486632000
  I0309 03:53:08.787945 2039427072 layer_factory.hpp:77] Creating layer relu2
  I0309 03:53:08.787957 2039427072 net.cpp:106] Creating Layer relu2
  I0309 03:53:08.787964 2039427072 net.cpp:454] relu2 <- conv2
  I0309 03:53:08.787973 2039427072 net.cpp:397] relu2 -> conv2 (in-place)
  I0309 03:53:08.788177 2039427072 net.cpp:150] Setting up relu2
  I0309 03:53:08.788188 2039427072 net.cpp:157] Top shape: 400 256 37 37 (140185600)
  I0309 03:53:08.788197 2039427072 net.cpp:165] Memory required for data: 7047374400
  I0309 03:53:08.788242 2039427072 layer_factory.hpp:77] Creating layer pool2
  I0309 03:53:08.788252 2039427072 net.cpp:106] Creating Layer pool2
  I0309 03:53:08.788259 2039427072 net.cpp:454] pool2 <- conv2
  I0309 03:53:08.788270 2039427072 net.cpp:411] pool2 -> pool2
  I0309 03:53:08.788285 2039427072 net.cpp:150] Setting up pool2
  I0309 03:53:08.788290 2039427072 net.cpp:157] Top shape: 400 256 19 19 (36966400)
  I0309 03:53:08.788300 2039427072 net.cpp:165] Memory required for data: 7195240000
  I0309 03:53:08.788305 2039427072 layer_factory.hpp:77] Creating layer conv3
  I0309 03:53:08.788317 2039427072 net.cpp:106] Creating Layer conv3
  I0309 03:53:08.788323 2039427072 net.cpp:454] conv3 <- pool2
  I0309 03:53:08.788331 2039427072 net.cpp:411] conv3 -> conv3
  I0309 03:53:08.791609 2039427072 net.cpp:150] Setting up conv3
  I0309 03:53:08.791642 2039427072 net.cpp:157] Top shape: 400 512 19 19 (73932800)
  I0309 03:53:08.791652 2039427072 net.cpp:165] Memory required for data: 7490971200
  I0309 03:53:08.791667 2039427072 layer_factory.hpp:77] Creating layer relu3
  I0309 03:53:08.791683 2039427072 net.cpp:106] Creating Layer relu3
  I0309 03:53:08.791692 2039427072 net.cpp:454] relu3 <- conv3
  I0309 03:53:08.791702 2039427072 net.cpp:397] relu3 -> conv3 (in-place)
  I0309 03:53:08.791836 2039427072 net.cpp:150] Setting up relu3
  I0309 03:53:08.791846 2039427072 net.cpp:157] Top shape: 400 512 19 19 (73932800)
  I0309 03:53:08.791856 2039427072 net.cpp:165] Memory required for data: 7786702400
  I0309 03:53:08.791862 2039427072 layer_factory.hpp:77] Creating layer conv4
  I0309 03:53:08.791873 2039427072 net.cpp:106] Creating Layer conv4
  I0309 03:53:08.791879 2039427072 net.cpp:454] conv4 <- conv3
  I0309 03:53:08.791887 2039427072 net.cpp:411] conv4 -> conv4
  I0309 03:53:08.798092 2039427072 net.cpp:150] Setting up conv4
  I0309 03:53:08.798127 2039427072 net.cpp:157] Top shape: 400 512 19 19 (73932800)
  I0309 03:53:08.798138 2039427072 net.cpp:165] Memory required for data: 8082433600
  I0309 03:53:08.798149 2039427072 layer_factory.hpp:77] Creating layer relu4
  I0309 03:53:08.798162 2039427072 net.cpp:106] Creating Layer relu4
  I0309 03:53:08.798169 2039427072 net.cpp:454] relu4 <- conv4
  I0309 03:53:08.798179 2039427072 net.cpp:397] relu4 -> conv4 (in-place)
  I0309 03:53:08.798420 2039427072 net.cpp:150] Setting up relu4
  I0309 03:53:08.798434 2039427072 net.cpp:157] Top shape: 400 512 19 19 (73932800)
  I0309 03:53:08.798441 2039427072 net.cpp:165] Memory required for data: 8378164800
  I0309 03:53:08.798449 2039427072 layer_factory.hpp:77] Creating layer conv5
  I0309 03:53:08.798460 2039427072 net.cpp:106] Creating Layer conv5
  I0309 03:53:08.798466 2039427072 net.cpp:454] conv5 <- conv4
  I0309 03:53:08.798475 2039427072 net.cpp:411] conv5 -> conv5
  I0309 03:53:08.804391 2039427072 net.cpp:150] Setting up conv5
  I0309 03:53:08.804440 2039427072 net.cpp:157] Top shape: 400 512 19 19 (73932800)
  I0309 03:53:08.804450 2039427072 net.cpp:165] Memory required for data: 8673896000
  I0309 03:53:08.804466 2039427072 layer_factory.hpp:77] Creating layer relu5
  I0309 03:53:08.804478 2039427072 net.cpp:106] Creating Layer relu5
  I0309 03:53:08.804486 2039427072 net.cpp:454] relu5 <- conv5
  I0309 03:53:08.804494 2039427072 net.cpp:397] relu5 -> conv5 (in-place)
  I0309 03:53:08.804695 2039427072 net.cpp:150] Setting up relu5
  I0309 03:53:08.804708 2039427072 net.cpp:157] Top shape: 400 512 19 19 (73932800)
  I0309 03:53:08.804716 2039427072 net.cpp:165] Memory required for data: 8969627200
  I0309 03:53:08.804723 2039427072 layer_factory.hpp:77] Creating layer pool5
  I0309 03:53:08.804733 2039427072 net.cpp:106] Creating Layer pool5
  I0309 03:53:08.804738 2039427072 net.cpp:454] pool5 <- conv5
  I0309 03:53:08.804747 2039427072 net.cpp:411] pool5 -> pool5
  I0309 03:53:08.804760 2039427072 net.cpp:150] Setting up pool5
  I0309 03:53:08.804767 2039427072 net.cpp:157] Top shape: 400 512 7 7 (10035200)
  I0309 03:53:08.804774 2039427072 net.cpp:165] Memory required for data: 9009768000
  I0309 03:53:08.804781 2039427072 layer_factory.hpp:77] Creating layer fc6
  I0309 03:53:08.804792 2039427072 net.cpp:106] Creating Layer fc6
  I0309 03:53:08.804836 2039427072 net.cpp:454] fc6 <- pool5
  I0309 03:53:08.804847 2039427072 net.cpp:411] fc6 -> fc6
  I0309 03:53:09.041837 2039427072 net.cpp:150] Setting up fc6
  I0309 03:53:09.041875 2039427072 net.cpp:157] Top shape: 400 4048 (1619200)
  I0309 03:53:09.041884 2039427072 net.cpp:165] Memory required for data: 9016244800
  I0309 03:53:09.041898 2039427072 layer_factory.hpp:77] Creating layer relu6
  I0309 03:53:09.041916 2039427072 net.cpp:106] Creating Layer relu6
  I0309 03:53:09.041925 2039427072 net.cpp:454] relu6 <- fc6
  I0309 03:53:09.041936 2039427072 net.cpp:397] relu6 -> fc6 (in-place)
  I0309 03:53:09.042212 2039427072 net.cpp:150] Setting up relu6
  I0309 03:53:09.042230 2039427072 net.cpp:157] Top shape: 400 4048 (1619200)
  I0309 03:53:09.042240 2039427072 net.cpp:165] Memory required for data: 9022721600
  I0309 03:53:09.042248 2039427072 layer_factory.hpp:77] Creating layer drop6
  I0309 03:53:09.042258 2039427072 net.cpp:106] Creating Layer drop6
  I0309 03:53:09.042265 2039427072 net.cpp:454] drop6 <- fc6
  I0309 03:53:09.042274 2039427072 net.cpp:397] drop6 -> fc6 (in-place)
  I0309 03:53:09.042292 2039427072 net.cpp:150] Setting up drop6
  I0309 03:53:09.042299 2039427072 net.cpp:157] Top shape: 400 4048 (1619200)
  I0309 03:53:09.042307 2039427072 net.cpp:165] Memory required for data: 9029198400
  I0309 03:53:09.042314 2039427072 layer_factory.hpp:77] Creating layer fc7
  I0309 03:53:09.042322 2039427072 net.cpp:106] Creating Layer fc7
  I0309 03:53:09.042330 2039427072 net.cpp:454] fc7 <- fc6
  I0309 03:53:09.042337 2039427072 net.cpp:411] fc7 -> fc7
  I0309 03:53:09.084827 2039427072 net.cpp:150] Setting up fc7
  I0309 03:53:09.084895 2039427072 net.cpp:157] Top shape: 400 4048 (1619200)
  I0309 03:53:09.084906 2039427072 net.cpp:165] Memory required for data: 9035675200
  I0309 03:53:09.084923 2039427072 layer_factory.hpp:77] Creating layer relu7
  I0309 03:53:09.084944 2039427072 net.cpp:106] Creating Layer relu7
  I0309 03:53:09.084952 2039427072 net.cpp:454] relu7 <- fc7
  I0309 03:53:09.084964 2039427072 net.cpp:397] relu7 -> fc7 (in-place)
  I0309 03:53:09.085621 2039427072 net.cpp:150] Setting up relu7
  I0309 03:53:09.085659 2039427072 net.cpp:157] Top shape: 400 4048 (1619200)
  I0309 03:53:09.085669 2039427072 net.cpp:165] Memory required for data: 9042152000
  I0309 03:53:09.085677 2039427072 layer_factory.hpp:77] Creating layer drop7
  I0309 03:53:09.085691 2039427072 net.cpp:106] Creating Layer drop7
  I0309 03:53:09.085700 2039427072 net.cpp:454] drop7 <- fc7
  I0309 03:53:09.085712 2039427072 net.cpp:397] drop7 -> fc7 (in-place)
  I0309 03:53:09.085731 2039427072 net.cpp:150] Setting up drop7
  I0309 03:53:09.085737 2039427072 net.cpp:157] Top shape: 400 4048 (1619200)
  I0309 03:53:09.085746 2039427072 net.cpp:165] Memory required for data: 9048628800
  I0309 03:53:09.085752 2039427072 layer_factory.hpp:77] Creating layer fc8_cat
  I0309 03:53:09.085767 2039427072 net.cpp:106] Creating Layer fc8_cat
  I0309 03:53:09.085774 2039427072 net.cpp:454] fc8_cat <- fc7
  I0309 03:53:09.085783 2039427072 net.cpp:411] fc8_cat -> fc8
  I0309 03:53:09.085888 2039427072 net.cpp:150] Setting up fc8_cat
  I0309 03:53:09.085901 2039427072 net.cpp:157] Top shape: 400 7 (2800)
  I0309 03:53:09.085908 2039427072 net.cpp:165] Memory required for data: 9048640000
  I0309 03:53:09.085918 2039427072 layer_factory.hpp:77] Creating layer prob
  I0309 03:53:09.085928 2039427072 net.cpp:106] Creating Layer prob
  I0309 03:53:09.085935 2039427072 net.cpp:454] prob <- fc8
  I0309 03:53:09.085942 2039427072 net.cpp:454] prob <- label
  I0309 03:53:09.085959 2039427072 net.cpp:411] prob -> (automatic)
…
              type: "Data"
                top: "data"
                  top: "label"
                    include {
                          phase: TEST
                                     }
            transform_param {
                  mean_file: "datasets/mean_training_image.binaryproto"
                                 }
              data_param {
                    source: "datasets/validation_set_lmdb"
                                  batch_size: 14
                                      backend: LMDB
                                        }
}
layer {
    name: "conv1"
              type: "Convolution"
                bottom: "data"
                  top: "conv1"
                    param {
                          lr_mult: 0
                                       }
            param {
                  lr_mult: 0
                               }
              convolution_param {
                    num_output: 96
                                      kernel_size: 7
                                          stride: 2
                                            }
}
layer {
    name: "relu1"
              type: "ReLU"
                bottom: "conv1"
                  top: "conv1"
}
layer {
    name: "norm1"
              type: "LRN"
                bottom: "conv1"
                  top: "norm1"
                    lrn_param {
                          local_size: 5
                                            alpha: 0.0005
                                                beta: 0.75
                                                  }
}
layer {
    name: "pool1"
              type: "Pooling"
                bottom: "norm1"
                  top: "pool1"
                    pooling_param {
                          pool: MAX
                                      kernel_size: 3
                                          stride: 3
                                            }
}
layer {
    name: "conv2"
              type: "Convolution"
                bottom: "pool1"
                  top: "conv2"
                    param {
                          lr_mult: 0
                                       }
            param {
                  lr_mult: 0
                               }
              convolution_param {
                    num_output: 256
                                      pad: 2
                                          kernel_size: 5
                                            }
}
layer {
    name: "relu2"
              type: "ReLU"
                bottom: "conv2"
                  top: "conv2"
}
layer {
    name: "pool2"
              type: "Pooling"
                bottom: "conv2"
                  top: "pool2"
                    pooling_param {
                          pool: MAX
                                      kernel_size: 2
                                          stride: 2
                                            }
}
layer {
    name: "conv3"
              type: "Convolution"
                bottom: "pool2"
                  top: "conv3"
                    param {
                          lr_mult: 0
                                       }
            param {
                  lr_mult: 0
                               }
              convolution_param {
                    num_output: 512
                                      pad: 1
                                          kernel_size: 3
                                            }
}
layer {
    name: "relu3"
              type: "ReLU"
                bottom: "conv3"
                  top: "conv3"
}
layer {
    name: "conv4"
              type: "Convolution"
                bottom: "conv3"
                  top: "conv4"
                    param {
                          lr_mult: 0
                                       }
            param {
                  lr_mult: 0
                               }
              convolution_param {
                    num_output: 512
                                      pad: 1
                                          kernel_size: 3
                                            }
}
layer {
    name: "relu4"
              type: "ReLU"
                bottom: "conv4"
                  top: "conv4"
}
layer {
    name: "conv5"
              type: "Convolution"
                bottom: "conv4"
                  top: "conv5"
                    param {
                          lr_mult: 0
                                       }
            param {
                  lr_mult: 0
                               }
              convolution_param {
                    num_output: 512
                                      pad: 1
                                          kernel_size: 3
                                            }
}
layer {
    name: "relu5"
              type: "ReLU"
                bottom: "conv5"
                  top: "conv5"
}
layer {
    name: "pool5"
              type: "Pooling"
                bottom: "conv5"
                  top: "pool5"
                    pooling_param {
                          pool: MAX
                                      kernel_size: 3
                                          stride: 3
                                            }
}
layer {
    name: "fc6"
              type: "InnerProduct"
                bottom: "pool5"
                  top: "fc6"
                    param {
                          lr_mult: 1
                                       }
            param {
                  lr_mult: 1
                               }
              inner_product_param {
                    num_output: 4048
                                    }
}
layer {
    name: "relu6"
              type: "ReLU"
                bottom: "fc6"
                  top: "fc6"
}
layer {
    name: "drop6"
              type: "Dropout"
                bottom: "fc6"
                  top: "fc6"
                    dropout_param {
                          dropout_ratio: 0.5
                                             }
}
layer {
    name: "fc7"
              type: "InnerProduct"
                bottom: "fc6"
                  top: "fc7"
                    param {
                          lr_mult: 1
                                       }
            param {
                  lr_mult: 1
                               }
              inner_product_param {
                    num_output: 4048
                                    }
}
layer {
    name: "relu7"
              type: "ReLU"
                bottom: "fc7"
                  top: "fc7"
}
layer {
    name: "drop7"
              type: "Dropout"
                bottom: "fc7"
                  top: "fc7"
                    dropout_param {
                          dropout_ratio: 0.5
                                             }
}
layer {
    name: "fc8_cat"
              type: "InnerProduct"
                bottom: "fc7"
                  top: "fc8"
                    param {
                          lr_mult: 1
                                       }
            param {
                  lr_mult: 1
                               }
              inner_product_param {
                    num_output: 7
                                    }
}
layer {
    name: "prob"
              type: "SoftmaxWithLoss"
                bottom: "fc8"
                  bottom: "label"
}
I0309 03:53:09.087695 2039427072 layer_factory.hpp:77] Creating layer training_test
I0309 03:53:09.087796 2039427072 net.cpp:106] Creating Layer training_test
I0309 03:53:09.087816 2039427072 net.cpp:411] training_test -> data
I0309 03:53:09.087839 2039427072 net.cpp:411] training_test -> label
I0309 03:53:09.087859 2039427072 data_transformer.cpp:25] Loading mean file from: datasets/mean_training_image.binaryproto
I0309 03:53:09.094477 4284416 db_lmdb.cpp:38] Opened lmdb datasets/validation_set_lmdb
I0309 03:53:09.094655 2039427072 data_layer.cpp:41] output data size: 14,3,224,224
I0309 03:53:09.111527 2039427072 net.cpp:150] Setting up training_test
I0309 03:53:09.111560 2039427072 net.cpp:157] Top shape: 14 3 224 224 (2107392)
  I0309 03:53:09.111572 2039427072 net.cpp:157] Top shape: 14 (14)
  I0309 03:53:09.111579 2039427072 net.cpp:165] Memory required for data: 8429624
  I0309 03:53:09.111589 2039427072 layer_factory.hpp:77] Creating layer conv1
  I0309 03:53:09.111608 2039427072 net.cpp:106] Creating Layer conv1
  I0309 03:53:09.111615 2039427072 net.cpp:454] conv1 <- data
  I0309 03:53:09.111627 2039427072 net.cpp:411] conv1 -> conv1
  I0309 03:53:09.112519 2039427072 net.cpp:150] Setting up conv1
  I0309 03:53:09.112540 2039427072 net.cpp:157] Top shape: 14 96 109 109 (15968064)
  I0309 03:53:09.112550 2039427072 net.cpp:165] Memory required for data: 72301880
  I0309 03:53:09.112562 2039427072 layer_factory.hpp:77] Creating layer relu1
  I0309 03:53:09.112574 2039427072 net.cpp:106] Creating Layer relu1
  I0309 03:53:09.112581 2039427072 net.cpp:454] relu1 <- conv1
  I0309 03:53:09.112610 2039427072 net.cpp:397] relu1 -> conv1 (in-place)
  I0309 03:53:09.112915 2039427072 net.cpp:150] Setting up relu1
  I0309 03:53:09.112936 2039427072 net.cpp:157] Top shape: 14 96 109 109 (15968064)
  I0309 03:53:09.112952 2039427072 net.cpp:165] Memory required for data: 136174136
  I0309 03:53:09.112965 2039427072 layer_factory.hpp:77] Creating layer norm1
  I0309 03:53:09.112992 2039427072 net.cpp:106] Creating Layer norm1
  I0309 03:53:09.113006 2039427072 net.cpp:454] norm1 <- conv1
  I0309 03:53:09.113023 2039427072 net.cpp:411] norm1 -> norm1
  I0309 03:53:09.113227 2039427072 net.cpp:150] Setting up norm1
  I0309 03:53:09.113243 2039427072 net.cpp:157] Top shape: 14 96 109 109 (15968064)
  I0309 03:53:09.113289 2039427072 net.cpp:165] Memory required for data: 200046392
  I0309 03:53:09.113297 2039427072 layer_factory.hpp:77] Creating layer pool1
  I0309 03:53:09.113312 2039427072 net.cpp:106] Creating Layer pool1
  I0309 03:53:09.113318 2039427072 net.cpp:454] pool1 <- norm1
  I0309 03:53:09.113327 2039427072 net.cpp:411] pool1 -> pool1
  I0309 03:53:09.113342 2039427072 net.cpp:150] Setting up pool1
  I0309 03:53:09.113348 2039427072 net.cpp:157] Top shape: 14 96 37 37 (1839936)
  I0309 03:53:09.113355 2039427072 net.cpp:165] Memory required for data: 207406136
  I0309 03:53:09.113361 2039427072 layer_factory.hpp:77] Creating layer conv2
  I0309 03:53:09.113371 2039427072 net.cpp:106] Creating Layer conv2
  I0309 03:53:09.113378 2039427072 net.cpp:454] conv2 <- pool1
  I0309 03:53:09.113385 2039427072 net.cpp:411] conv2 -> conv2
  I0309 03:53:09.115545 2039427072 net.cpp:150] Setting up conv2
  I0309 03:53:09.115577 2039427072 net.cpp:157] Top shape: 14 256 37 37 (4906496)
  I0309 03:53:09.115587 2039427072 net.cpp:165] Memory required for data: 227032120
  I0309 03:53:09.115602 2039427072 layer_factory.hpp:77] Creating layer relu2
  I0309 03:53:09.115618 2039427072 net.cpp:106] Creating Layer relu2
  I0309 03:53:09.115627 2039427072 net.cpp:454] relu2 <- conv2
  I0309 03:53:09.115635 2039427072 net.cpp:397] relu2 -> conv2 (in-place)
  I0309 03:53:09.115955 2039427072 net.cpp:150] Setting up relu2
  I0309 03:53:09.115969 2039427072 net.cpp:157] Top shape: 14 256 37 37 (4906496)
  I0309 03:53:09.115978 2039427072 net.cpp:165] Memory required for data: 246658104
  I0309 03:53:09.115984 2039427072 layer_factory.hpp:77] Creating layer pool2
  I0309 03:53:09.115993 2039427072 net.cpp:106] Creating Layer pool2
  I0309 03:53:09.116001 2039427072 net.cpp:454] pool2 <- conv2
  I0309 03:53:09.116009 2039427072 net.cpp:411] pool2 -> pool2
  I0309 03:53:09.116024 2039427072 net.cpp:150] Setting up pool2
  I0309 03:53:09.116030 2039427072 net.cpp:157] Top shape: 14 256 19 19 (1293824)
  I0309 03:53:09.116037 2039427072 net.cpp:165] Memory required for data: 251833400
  I0309 03:53:09.116044 2039427072 layer_factory.hpp:77] Creating layer conv3
  I0309 03:53:09.116080 2039427072 net.cpp:106] Creating Layer conv3
  I0309 03:53:09.116117 2039427072 net.cpp:454] conv3 <- pool2
  I0309 03:53:09.116130 2039427072 net.cpp:411] conv3 -> conv3
  I0309 03:53:09.120031 2039427072 net.cpp:150] Setting up conv3
  I0309 03:53:09.120069 2039427072 net.cpp:157] Top shape: 14 512 19 19 (2587648)
  I0309 03:53:09.120085 2039427072 net.cpp:165] Memory required for data: 262183992
  I0309 03:53:09.120107 2039427072 layer_factory.hpp:77] Creating layer relu3
  I0309 03:53:09.120146 2039427072 net.cpp:106] Creating Layer relu3
  I0309 03:53:09.120162 2039427072 net.cpp:454] relu3 <- conv3
  I0309 03:53:09.120177 2039427072 net.cpp:397] relu3 -> conv3 (in-place)
  I0309 03:53:09.120499 2039427072 net.cpp:150] Setting up relu3
  I0309 03:53:09.120517 2039427072 net.cpp:157] Top shape: 14 512 19 19 (2587648)
  I0309 03:53:09.120530 2039427072 net.cpp:165] Memory required for data: 272534584
  I0309 03:53:09.120543 2039427072 layer_factory.hpp:77] Creating layer conv4
  I0309 03:53:09.120565 2039427072 net.cpp:106] Creating Layer conv4
  I0309 03:53:09.120579 2039427072 net.cpp:454] conv4 <- conv3
  I0309 03:53:09.120594 2039427072 net.cpp:411] conv4 -> conv4
  I0309 03:53:09.132443 2039427072 net.cpp:150] Setting up conv4
  I0309 03:53:09.132483 2039427072 net.cpp:157] Top shape: 14 512 19 19 (2587648)
  I0309 03:53:09.132498 2039427072 net.cpp:165] Memory required for data: 282885176
  I0309 03:53:09.132518 2039427072 layer_factory.hpp:77] Creating layer relu4
  I0309 03:53:09.132537 2039427072 net.cpp:106] Creating Layer relu4
  I0309 03:53:09.132550 2039427072 net.cpp:454] relu4 <- conv4
  I0309 03:53:09.132570 2039427072 net.cpp:397] relu4 -> conv4 (in-place)
  I0309 03:53:09.134182 2039427072 net.cpp:150] Setting up relu4
  I0309 03:53:09.134212 2039427072 net.cpp:157] Top shape: 14 512 19 19 (2587648)
  I0309 03:53:09.134227 2039427072 net.cpp:165] Memory required for data: 293235768
  I0309 03:53:09.134241 2039427072 layer_factory.hpp:77] Creating layer conv5
  I0309 03:53:09.134313 2039427072 net.cpp:106] Creating Layer conv5
  I0309 03:53:09.134327 2039427072 net.cpp:454] conv5 <- conv4
  I0309 03:53:09.134346 2039427072 net.cpp:411] conv5 -> conv5
  I0309 03:53:09.144678 2039427072 net.cpp:150] Setting up conv5
  I0309 03:53:09.144711 2039427072 net.cpp:157] Top shape: 14 512 19 19 (2587648)
  I0309 03:53:09.144721 2039427072 net.cpp:165] Memory required for data: 303586360
  I0309 03:53:09.144736 2039427072 layer_factory.hpp:77] Creating layer relu5
  I0309 03:53:09.144750 2039427072 net.cpp:106] Creating Layer relu5
  I0309 03:53:09.144758 2039427072 net.cpp:454] relu5 <- conv5
  I0309 03:53:09.144767 2039427072 net.cpp:397] relu5 -> conv5 (in-place)
  I0309 03:53:09.146145 2039427072 net.cpp:150] Setting up relu5
  I0309 03:53:09.146160 2039427072 net.cpp:157] Top shape: 14 512 19 19 (2587648)
  I0309 03:53:09.146167 2039427072 net.cpp:165] Memory required for data: 313936952
  I0309 03:53:09.146174 2039427072 layer_factory.hpp:77] Creating layer pool5
  I0309 03:53:09.146186 2039427072 net.cpp:106] Creating Layer pool5
  I0309 03:53:09.146193 2039427072 net.cpp:454] pool5 <- conv5
  I0309 03:53:09.146203 2039427072 net.cpp:411] pool5 -> pool5
  I0309 03:53:09.146217 2039427072 net.cpp:150] Setting up pool5
  I0309 03:53:09.146224 2039427072 net.cpp:157] Top shape: 14 512 7 7 (351232)
  I0309 03:53:09.146232 2039427072 net.cpp:165] Memory required for data: 315341880
  I0309 03:53:09.146239 2039427072 layer_factory.hpp:77] Creating layer fc6
  I0309 03:53:09.146250 2039427072 net.cpp:106] Creating Layer fc6
  I0309 03:53:09.146256 2039427072 net.cpp:454] fc6 <- pool5
  I0309 03:53:09.146265 2039427072 net.cpp:411] fc6 -> fc6
  I0309 03:53:09.377846 2039427072 net.cpp:150] Setting up fc6
  I0309 03:53:09.377890 2039427072 net.cpp:157] Top shape: 14 4048 (56672)
  I0309 03:53:09.377908 2039427072 net.cpp:165] Memory required for data: 315568568
  I0309 03:53:09.377920 2039427072 layer_factory.hpp:77] Creating layer relu6
  I0309 03:53:09.377935 2039427072 net.cpp:106] Creating Layer relu6
  I0309 03:53:09.377943 2039427072 net.cpp:454] relu6 <- fc6
  I0309 03:53:09.377962 2039427072 net.cpp:397] relu6 -> fc6 (in-place)
  I0309 03:53:09.378199 2039427072 net.cpp:150] Setting up relu6
  I0309 03:53:09.378211 2039427072 net.cpp:157] Top shape: 14 4048 (56672)
  I0309 03:53:09.378228 2039427072 net.cpp:165] Memory required for data: 315795256
  I0309 03:53:09.378234 2039427072 layer_factory.hpp:77] Creating layer drop6
  I0309 03:53:09.378244 2039427072 net.cpp:106] Creating Layer drop6
  I0309 03:53:09.378250 2039427072 net.cpp:454] drop6 <- fc6
  I0309 03:53:09.378258 2039427072 net.cpp:397] drop6 -> fc6 (in-place)
  I0309 03:53:09.378269 2039427072 net.cpp:150] Setting up drop6
  I0309 03:53:09.378275 2039427072 net.cpp:157] Top shape: 14 4048 (56672)
  I0309 03:53:09.378283 2039427072 net.cpp:165] Memory required for data: 316021944
  I0309 03:53:09.378298 2039427072 layer_factory.hpp:77] Creating layer fc7
  I0309 03:53:09.378316 2039427072 net.cpp:106] Creating Layer fc7
  I0309 03:53:09.378324 2039427072 net.cpp:454] fc7 <- fc6
  I0309 03:53:09.378335 2039427072 net.cpp:411] fc7 -> fc7
  I0309 03:53:09.411770 2039427072 net.cpp:150] Setting up fc7
  I0309 03:53:09.411813 2039427072 net.cpp:157] Top shape: 14 4048 (56672)
  I0309 03:53:09.411830 2039427072 net.cpp:165] Memory required for data: 316248632
  I0309 03:53:09.411842 2039427072 layer_factory.hpp:77] Creating layer relu7
  I0309 03:53:09.411854 2039427072 net.cpp:106] Creating Layer relu7
  I0309 03:53:09.411860 2039427072 net.cpp:454] relu7 <- fc7
  I0309 03:53:09.411870 2039427072 net.cpp:397] relu7 -> fc7 (in-place)
  I0309 03:53:09.412672 2039427072 net.cpp:150] Setting up relu7
  I0309 03:53:09.412696 2039427072 net.cpp:157] Top shape: 14 4048 (56672)
  I0309 03:53:09.413028 2039427072 net.cpp:165] Memory required for data: 316475320
  I0309 03:53:09.413048 2039427072 layer_factory.hpp:77] Creating layer drop7
  I0309 03:53:09.413380 2039427072 net.cpp:106] Creating Layer drop7
  I0309 03:53:09.413771 2039427072 net.cpp:454] drop7 <- fc7
  I0309 03:53:09.414346 2039427072 net.cpp:397] drop7 -> fc7 (in-place)
  I0309 03:53:09.414511 2039427072 net.cpp:150] Setting up drop7
  I0309 03:53:09.414527 2039427072 net.cpp:157] Top shape: 14 4048 (56672)
  I0309 03:53:09.414681 2039427072 net.cpp:165] Memory required for data: 316702008
  I0309 03:53:09.414700 2039427072 layer_factory.hpp:77] Creating layer fc8_cat
  I0309 03:53:09.414713 2039427072 net.cpp:106] Creating Layer fc8_cat
  I0309 03:53:09.415029 2039427072 net.cpp:454] fc8_cat <- fc7
  I0309 03:53:09.415053 2039427072 net.cpp:411] fc8_cat -> fc8
  I0309 03:53:09.416302 2039427072 net.cpp:150] Setting up fc8_cat
  I0309 03:53:09.416688 2039427072 net.cpp:157] Top shape: 14 7 (98)
  I0309 03:53:09.416955 2039427072 net.cpp:165] Memory required for data: 316702400
  I0309 03:53:09.417032 2039427072 layer_factory.hpp:77] Creating layer prob
  I0309 03:53:09.417198 2039427072 net.cpp:106] Creating Layer prob
  I0309 03:53:09.417228 2039427072 net.cpp:454] prob <- fc8
  I0309 03:53:09.417246 2039427072 net.cpp:454] prob <- label
  I0309 03:53:09.417263 2039427072 net.cpp:411] prob -> (automatic)
…
